model.npz (npz, 1950 bytes, 4 tensors)

w1 f8 [11, 8]
0.15413189084511272 2.5629394466691395 -1.6733763738250444 0.07842499171048267 0.05124756853231955 0.066508386921506 -1.3013889030105 0.8701976096903299
-0.024079179105599063 -0.11376678542861204 2.9367789248809895 2.434494124111831 0.07498589909493024 0.1210126667527677 -1.0191982997798066 -1.6624289099867944
-0.020955372956656382 -1.015359426760843 0.4180691873123453 0.07818955870125878 1.6725691644629221 -1.2867384369889465 -0.9403682350817961 0.6052290059022465
-1.448024052003752 0.6001562692382337 0.8619937274086299 -0.4301335845686957 -0.3176528024562082 0.17404612801603747 1.474077432061589 0.956918965845408
0.6826801387695599 0.8666953665471008 1.8412250250119058 0.32717974156828883 0.4151268804724005 -0.41832436920424215 2.011260101859795 -0.1194813092886742
1.8034545209131014 0.28668008423907215 -0.39226408086447645 -0.7010262651723796 2.186128395963464 1.0727380924781393 1.6091554257406098 -0.5412881409546189
-0.27406700205366213 0.7050401610810582 0.8264188189762807 0.8872387129401844 -0.33066510464702714 0.5608744978344439 1.620074580787423 1.5795844695286263
0.12287738256910449 -0.790683697537842 -0.24179725888596865 0.1378100175237434 -1.1742709966106486 0.2568663913836441 -0.20686261995509947 0.9560561526140725
-0.2321687243328152 0.9434370719397484 0.5360247805183649 0.10380222629161989 1.281403315874999 0.5370225292302792 0.07876176071912815 0.13327387953683678
1.5579361175470974 -0.6279537282810055 0.03257119188790587 -0.9681332352032256 1.1120212827320874 1.02750878808957 -0.32928329959035013 0.3901948087285237
0.5795022369232447 -0.5428762665537622 0.8569584373606535 -1.4123029810292425 0.2120473811627101 0.05148955901370242 -0.20113401606503042 0.03388286852550657
00000000: bda6 3903 98ba c33f 0d94 8865 e680 0440
00000010: 66a4 f74d 26c6 fabf 80e9 9506 a913 b43f
00000020: c910 b10d 1f3d aa3f 33d2 bc92 b106 b13f
00000030: 2aeb 9c2b 7dd2 f4bf c4ac 55a8 a8d8 eb3f
00000040: d8a0 175b 36a8 98bf c674 c9ee d11f bdbf
00000050: 2f91 eff2 857e 0740 74ea 2a0e d879 0340
00000060: 171d 46a0 4632 b33f aad9 1aa6 affa be3f
00000070: d416 5be0 a24e f0bf 6317 850e 4f99 fabf
00000080: dde7 1846 5375 95bf 55f8 b986 e93e f0bf
00000090: 5232 be43 a5c1 da3f 49b5 821d 3b04 b43f
000000a0: 26a9 5ae2 d7c2 fa3f 9afa 150b 7b96 f4bf
000000b0: 28f4 fb1f 7f17 eebf 8a1a 5e38 095e e33f
000000c0: 1dd7 b244 1b2b f7bf 41c3 9beb 7a34 e33f
000000d0: 7578 92de 7395 eb3f 2790 a803 4f87 dbbf
000000e0: f40e 826b 6c54 d4bf 0083 e9bd 2447 c63f
000000f0: 769e a737 d295 f73f 284d e785 149f ee3f
00000100: a99b b404 84d8 e53f d543 ddeb f7bb eb3f
00000110: f30b 305f a875 fd3f 23c5 7c4c 83f0 d43f
00000120: 0d72 d455 7091 da3f fb87 3693 d3c5 dabf
00000130: 4be6 4989 0f17 0040 42cc e0bb 5396 bebf
00000140: 6852 b220 f3da fc3f 6f2a 8e6c f758 d23f
00000150: d956 adcd da1a d9bf 37ad 51a2 ce6e e6bf
00000160: fe28 6ce2 307d 0140 5ddf 056b ef29 f13f
00000170: 3eca 7bc2 19bf f93f 749b e381 3b52 e1bf
00000180: 77ed ae52 508a d1bf 00b6 4662 b08f e63f
00000190: 8eaa 09e1 0572 ea3f da57 fa70 4264 ec3f
000001a0: 26cb 98f8 9d29 d5bf df7f 2b13 aff2 e13f
000001b0: 9b01 d952 d3eb f93f c051 5e5d fa45 f93f
000001c0: 0e69 8d63 e474 bf3f eef8 cce5 474d e9bf
000001d0: 3ebe 966b 36f3 cebf 62af 2937 c2a3 c13f
000001e0: 5258 7162 d0c9 f2bf 5ecb 9bbb 7f70 d03f
000001f0: 746b bc6d 797a cabf aebe 9312 0398 ee3f
00000200: f0ec 146b b4b7 cdbf 4516 3af1 a230 ee3f
00000210: a880 c570 1d27 e13f f4ab 2c5f c892 ba3f
00000220: 8bb4 6ac3 a080 f43f cd4b 08df 492f e13f
00000230: dbca 7612 bb29 b43f f4c8 0255 1e0f c13f
00000240: b1f3 216c 4eed f83f 34c8 cb6a 3218 e4bf
00000250: 3a8d e6d7 2bad a03f ffca eb8c f2fa eebf
00000260: 02a5 1cd4 d6ca f13f 2128 130e ad70 f03f
00000270: 7102 b742 fa12 d5bf 05b6 a3a5 f3f8 d83f
00000280: eb69 7146 488b e23f 83ef 530c 3e5f e1bf
00000290: 43d9 cf19 346c eb3f c105 b902 cb98 f6bf
000002a0: b6ec a55b 5e24 cb3f ac3f 19e8 d65c aa3f
000002b0: 9364 8e6a c2be c9bf 5d66 6c68 1859 a13f

b1 f8 [1, 8]
-0.11337378591503941 2.132792527701002 2.0292180388491277 0.6409659629538911 1.058704716969942 1.7262258427452104 2.723646742331354 1.962217006167219
00000000: 9e92 ba7e 1006 bdbf 2508 5d87 f50f 0140
00000010: 6a7b caaa d63b 0040 368e 170d cb82 e43f
00000020: 011c 785b 74f0 f03f 8a9c 41fd 9e9e fb3f
00000030: 605c a14d 07ca 0540 b24a d2a8 3d65 ff3f

w2 f8 [8, 3]
0.3876663422922711 -8.910315406748966 0.6788150132973404 0.600506463533897 -13.324038495619037 6.587037945469325 -5.933818931769126 0.20537483149580177
0.2409817532636383 -7.535112092636732 5.256366587721231 -3.1330823148335667 2.386352115113169 4.737160789177737 -11.553016854501912 -7.1552490243207965
2.6736349890905142 15.35486996592878 14.917054211259904 19.07528519111827 9.431185273550438 7.321648529771657 -2.162540491451045 -9.102744213871677
00000000: 8def 797d 86cf d83f 4110 6adc 14d2 21c0
00000010: 11ab 4443 dab8 e53f 4245 bd54 5937 e33f
00000020: 59a8 aa5f e8a5 2ac0 0635 a579 2059 1a40
00000030: 1256 b107 3bbc 17c0 da15 59f4 b849 ca3f
00000040: d29b 9976 7dd8 ce3f 8a46 a66c f423 1ec0
00000050: ff32 78f6 8406 1540 d316 ef75 8d10 09c0
00000060: 3f36 19c7 3f17 0340 d1a5 2547 daf2 1240
00000070: ec71 7006 251b 27c0 61c6 a899 f99e 1cc0
00000080: 3cae bcbd 9a63 0540 55fe 2384 b1b5 2e40
00000090: 6d0a 2c21 88d5 2d40 e0b9 e9e3 4513 3340
000000a0: f7d4 f050 c4dc 2240 f8b3 703b 5e49 1d40
000000b0: cc76 7807 e24c 01c0 3add bce3 9a34 22c0

b2 f8 [1, 3]
3.8672205859302693 1.6439629724906322 7.470270463939361
00000000: 60e8 b758 11f0 0e40 58ea 2a1e ac4d fa3f
00000010: c493 9b94 8ee1 1d40
